PS C:\Users\William Wu\Downloads\P6_export\src> python train.py
* Data preprocessing
train dataset:
Found 5000 files belonging to 3 classes.
Using 4000 files for training.  
Using 1000 files for validation.
test dataset:
Found 3838 files belonging to 3 classes.
* Training basic_model for 1 epochs
Model: "sequential"
_________________________________________________________________
 Layer (type)                Output Shape              Param #
=================================================================
 rescaling (Rescaling)       (None, 150, 150, 3)       0

 conv2d (Conv2D)             (None, 150, 150, 8)       224

 max_pooling2d (MaxPooling2D  (None, 75, 75, 8)        0
 )

 conv2d_1 (Conv2D)           (None, 75, 75, 16)        1168

 max_pooling2d_1 (MaxPooling  (None, 37, 37, 16)       0
 2D)

 conv2d_2 (Conv2D)           (None, 37, 37, 32)        4640

 max_pooling2d_2 (MaxPooling  (None, 18, 18, 32)       0
 2D)

 conv2d_3 (Conv2D)           (None, 18, 18, 32)        9248
 conv2d_3 (Conv2D)           (None, 18, 18, 32)        9248

 max_pooling2d_3 (MaxPooling  (None, 9, 9, 32)         0

 max_pooling2d_3 (MaxPooling  (None, 9, 9, 32)         0
 2D)
 2D)


 flatten (Flatten)           (None, 2592)              0
 flatten (Flatten)           (None, 2592)              0


 dense (Dense)               (None, 32)                82976
 dense (Dense)               (None, 32)                82976
                                                                                                      1.0815 - val_accuracy: 0.3

 dense_1 (Dense)             (None, 3)                 99
 dense_1 (Dense)             (None, 3)                 99


=================================================================
=================================================================
Total params: 98,355
Total params: 98,355
Trainable params: 98,355
Trainable params: 98,355
Non-trainable params: 0
_________________________________________________________________
32/32 [==============================] - 17s 474ms/step - loss: 1.0875 - accuracy: 0.3993 - val_loss: 1.0815 - val_accuracy: 0.3500
…
* Model saved as results/basic_model_1_epochs_timestamp_1754437015.keras
PS C:\Users\William Wu\Downloads\P6_export\src> python train.py
* Data preprocessing
train dataset:
Found 5000 files belonging to 3 classes.
Using 4000 files for training.  
Using 1000 files for validation.
test dataset:
Found 3838 files belonging to 3 classes.
* Training basic_model for 20 epochs
Model: "sequential"
_________________________________________________________________
 Layer (type)                Output Shape              Param #   
=================================================================
 rescaling (Rescaling)       (None, 150, 150, 3)       0

 conv2d (Conv2D)             (None, 150, 150, 8)       224

 max_pooling2d (MaxPooling2D  (None, 75, 75, 8)        0
 )

 conv2d_1 (Conv2D)           (None, 75, 75, 16)        1168

 max_pooling2d_1 (MaxPooling  (None, 37, 37, 16)       0
 2D)

 conv2d_2 (Conv2D)           (None, 37, 37, 32)        4640

 max_pooling2d_2 (MaxPooling  (None, 18, 18, 32)       0
 2D)

 conv2d_3 (Conv2D)           (None, 18, 18, 32)        9248

 max_pooling2d_3 (MaxPooling  (None, 9, 9, 32)         0
 2D)

 flatten (Flatten)           (None, 2592)              0

 dense (Dense)               (None, 32)                82976

 dense_1 (Dense)             (None, 3)                 99

=================================================================
Total params: 98,355
Trainable params: 98,355
Non-trainable params: 0
_________________________________________________________________
Epoch 1/20
32/32 [==============================] - 14s 417ms/step - loss: 1.0953 - accuracy: 0.3787 - val_loss: 1.0833 - val_accuracy: 0.3580
Epoch 2/20
32/32 [==============================] - 14s 417ms/step - loss: 1.0384 - accuracy: 0.4557 - val_loss: 1.0240 - val_accuracy: 0.4440
…
